…
cture is defined in model.py , which provides the baseline MDN architecture with quantized neural network layers. We use the Negative Log-Likelihood (NLL) as the loss function implemented in loss.py . A good reading about it can be found here Refer to Model and Loss for more details. As an example, to implement the model with 2 time slices: from model import * model=CreateModel((13,21,2),n_filters=5,pool_size=3) model.summary() This generates a model with the following architecture: | Type | Output Shape | Parameters | |----------------------|---------------------|------------| | InputLayer | (None, 13, 21, 2) | 0 | | QSeparableConv2D | (None, 11, 19, 5) | 33 | | QActivation | (None, 11, 19, 5) | 0 | | QConv2D | (None, 11, 19, 5) | 30 | | QActivation | (None, 11, 19, 5) | 0 | | AveragePooling2D | (None, 3, 6, 5) | 0 | | QActivation | (None, 3, 6, 5) | 0 | | Flatten | (None, 90) | 0 | | QDense | (None, 16) | 1456 | | QActivation | (None, 16) | 0 | | QDense | (None, 16) | 272 | | QActivation | (None, 16) | 0 | | QDense | (None, 14) | 238 | Model Evaluation Refer to Evaluate for more details","title":"Home"},{"location":"#smart-pixels-ml","text":"Smart Pixels is a project focused on implementing machine learning models directly on silicon pixels or future detectors to enhance the inference of charged particle track parameters. We here use an MDN (Mixture Density Network) with one Gaussian. This model predicts the mean value of the
…
